models/best_gat_model.pt (torch, 18917 bytes, 17 tensors)

conv1.att_src f4 [1, 2, 32]
000000 82 40 a9 39 5b bd 01 bc 2a c1 fb bb d2 ae f5 39
       0.00032282254 -0.007918681 -0.007682939 0.00046860293
000010 c5 1a 03 bc 30 57 fd bb df 29 f7 3b 64 e7 dc b9
       -0.008001988 -0.007731341 0.007542833 -0.0004213407
000020 b5 34 71 bb 8a c0 04 bc 59 7d f5 b9 da 61 e9 39
       -0.0036805097 -0.0081025455 -0.00046823433 0.00044514128
000030 0e 60 1b 3a bc 14 c3 b9 ac 4e cd bb 11 fb c6 b9
       0.0005927094 -0.00037208747 -0.006265482 -0.00037952562
000040 c7 42 0a bc 3f d7 c5 bb 50 60 e8 bb 44 fe 02 bc
       -0.0084387725 -0.006037622 -0.0070915595 -0.007995192
000050 23 b9 a3 39 3e 54 02 3c ff 48 01 3c 1d 03 ea 39
       0.0003122772 0.007954655 0.007890939 0.00044634278
000060 c7 1d e5 39 29 90 8f b9 4e 87 d6 bb ee 7b 09 bc
       0.0004370047 -0.00027382493 -0.0065468913 -0.008391364
000070 32 ea 96 b9 b1 f0 d7 3b 15 d2 a2 bb e0 e9 86 b9
       -0.0002878472 0.006589972 -0.0049688914 -0.00025732722
000080 4c 57 02 bd e7 33 3b 3a 51 ed 08 bd e8 47 25 ba
       -0.031821534 0.0007141218 -0.033429448 -0.00063049654
000090 b3 74 12 bd 79 2b 39 3a 4f 2e cc 3c 8c 5a 68 ba
       -0.035755824 0.0007063668 0.024924425 -0.000886359
0000a0 6f e4 9b 3c 3a 85 16 3a 1c 19 ea bc cc 89 9e bc
       0.019029824 0.0005741898 -0.028576426 -0.019352816
0000b0 7d 1c d0 bc 8e a4 85 ba 9b 0d 5b 3a e3 5c 86 ba
       -0.02540421 -0.0010196136 0.00083562144 -0.0010251071
0000c0 a3 f7 8e ba 34 6c dd 3c 93 39 f0 3c c6 26 98 bc
       -0.0010907542 0.027029134 0.029324329 -0.018573176
0000d0 d2 2f 79 bc 5b e1 8c 3a 04 6e 69 3a 03 2d 8a ba
       -0.015209155 0.0010748314 0.0008904638 -0.0010541979
0000e0 55 b0 fa bc 54 e1 5f 3c 67 09 be 3c d9 89 d8 bc
       -0.03060166 0.013664562 0.023197843 -0.026432918
0000f0 f2 4d 4f 3a 6d d0 0f bd b6 21 9d 3b 91 e9 2b bd
       0.0007908038 -0.03511088 0.0047952784 -0.041970793

conv1.att_dst f4 [1, 2, 32]
000000 a4 b0 05 b9 55 b6 65 bb c0 4b 55 bb b5 54 06 b9
       -0.00012749672 -0.0035051305 -0.0032546371 -0.00012810792
000010 06 d1 5b bb 84 64 59 bb 83 eb 5b 3b 4f 17 02 39
       -0.0033541336 -0.0033171484 0.0033557124 0.00012406449
000020 8b 56 03 bb 89 50 5c bb 29 af 28 39 40 c1 09 b9
       -0.0020040597 -0.0033617339 0.00016086981 -0.0001313733
000030 b6 9d 3a 39 48 81 60 38 ac 23 34 bb 76 c9 44 39
       0.00017797094 5.3526164e-05 -0.0027487082 0.00018767067
000040 a1 f8 64 bb e1 4e 4e bb 12 f4 4f bb c5 a5 57 bb
       -0.0034938233 -0.003148012 -0.003173117 -0.0032905203
000050 02 db 0c b9 45 bb 65 3b e8 f7 5e 3b e0 38 34 b9
       -0.00013433027 0.0035054248 0.0034022275 -0.00017187325
000060 31 6b 12 b9 e0 07 3e 39 2e 19 49 bb 4d ad 63 bb
       -0.00013963577 0.00018122746 -0.0030685174 -0.0034740746
000070 4f 6d 1e 39 ea 12 42 3b 18 d9 31 bb 29 7e 2b 39
       0.00015108775 0.0029613324 -0.0027137455 0.00016354829
000080 52 45 42 bb 50 91 09 b9 02 96 42 bb d6 6f d7 b8
       -0.002964337 -0.00013119471 -0.0029691462 -0.0001027283
000090 c3 ec 4a bb b5 5d 27 b9 9a 93 25 3b 44 ec 16 b9
       -0.0030963875 -0.0001596127 0.002526498 -0.0001439313
0000a0 a3 11 0d 3b 18 18 56 39 a8 4f 39 bb e4 5b 17 bb
       0.0021525405 0.00020417606 -0.0028276239 -0.0023095543
0000b0 43 1e 29 bb 93 90 1a b8 fe 81 6f 38 d7 63 c4 b8
       -0.002580539 -3.6851106e-05 5.7103105e-05 -9.364605e-05
0000c0 b6 eb 4a 39 d3 a9 2e 3b a8 c0 34 3b 39 c3 19 bb
       0.0001935203 0.0026651516 0.0027580652 -0.002346231
0000d0 a4 13 0c bb fd 31 2f b9 1e 5b fe 38 8c 26 9e 38
       -0.0021374011 -0.00016707923 0.00012128636 7.541207e-05
0000e0 27 42 3d bb 18 67 08 3b a5 6b 1c 3b 04 a7 37 bb
       -0.0028878541 0.0020813402 0.0023867872 -0.0028023133
0000f0 a6 80 04 39 e3 03 46 bb 4b 45 a7 3a 2f 78 63 bb
       0.00012636426 -0.003021472 0.001276174 -0.0034709086

conv1.bias f4 [64]
000000 7f 43 ba b9 34 4d 2e 38 25 75 da 37 b8 17 47 38
       -0.00035526973 4.1556734e-05 2.6042175e-05 4.7467387e-05
000010 1a 07 eb b7 a0 d6 b9 36 c0 71 6d b8 8f b2 a4 39
       -2.801749e-05 5.5384153e-06 -5.661114e-05 0.00031413554
000020 01 b0 79 b8 8f 8d 6e b7 24 d3 a5 b9 00 43 82 b8
       -5.9530143e-05 -1.4218865e-05 -0.00031628564 -6.211363e-05
000030 84 16 3e b9 f8 53 6b b9 00 05 59 b5 83 9e b3 b9
       -0.000181282 -0.00022442627 -8.0846075e-07 -0.0003425964
000040 e7 55 44 37 1b ab fc 37 9f 99 24 b8 65 a8 da 37
       1.1702511e-05 3.0120418e-05 -3.9243718e-05 2.606604e-05
000050 7d 91 a3 b9 d0 6d 81 b7 d0 87 c7 b7 a6 c1 d0 b7
       -0.0003119818 -1.5429134e-05 -2.3785891e-05 -2.4885707e-05
000060 4e 1c 4e 39 4b dd 9a 39 69 41 f2 b6 36 f4 ff 37
       0.00019656235 0.00029538045 -7.2197768e-06 3.0512088e-05
000070 5b 30 5d b9 c0 78 8b 37 7d e4 ce 37 98 8e 53 b9
       -0.00021094216 1.662632e-05 2.4663512e-05 -0.00020175648
000080 22 b7 b2 b7 38 55 50 39 7a 3e 1d b7 2c 04 bf 39
       -2.1304531e-05 0.00019868172 -9.372476e-06 0.00036433467
000090 85 90 04 b8 de 8f 44 b8 a1 ba 0b 38 80 c4 04 35
       -3.1605847e-05 -4.686403e-05 3.3313994e-05 4.9459777e-07
0000a0 a4 8f 0c 38 90 f2 66 b7 7e 17 31 37 8a 9a ba b8
       3.3512377e-05 -1.3765544e-05 1.0555492e-05 -8.897956e-05
0000b0 ba ce f3 b7 bc 08 c3 39 38 29 0f 39 84 4d a4 b7
       -2.9064122e-05 0.00037199806 0.00013652898 -1.958642e-05
0000c0 a7 63 c7 b8 00 07 5f 37 b2 2a 82 38 37 33 a7 37
       -9.507621e-05 1.3293466e-05 6.206836e-05 1.99318e-05
0000d0 2d 32 9e b7 94 dd 98 b9 eb a8 3e 39 aa c0 a8 39
       -1.8858433e-05 -0.00029156788 0.00018182739 0.00032187003
0000e0 84 04 5c b7 e7 c7 0f 38 0c 34 b5 38 a6 51 59 b6
       -1.3114073e-05 3.428003e-05 8.640447e-05 -3.2383045e-06
0000f0 fd af f3 39 bd ec 8f b7 8a 8d a3 37 15 0f 09 38
       0.00046479693 -1.7157168e-05 1.9497023e-05 3.267739e-05

conv1.lin.weight f4 [64, 1]
000000 01 c8 84 3b 7b 40 de 3d 32 9e c9 3d aa 10 87 3b
       0.0040521626 0.108521424 0.098446265 0.0041218596
000010 a6 20 d6 3d fd ab d6 3d d3 a0 d3 bd 9e b4 5c bb
       0.10455446 0.10482023 -0.10333409 -0.0033676992
000020 4f a6 50 3d 9f bf d9 3d d6 af 6c bb 13 c0 8b 3b
       0.050939854 0.10632252 -0.0036115549 0.0042648404
000030 39 e5 83 bb 92 91 68 bb 0c d4 a0 3d 7e f5 a3 bb
       -0.004025128 -0.0035487157 0.07852945 -0.00500363
000040 71 77 e3 3d ef 0b a7 3d c1 72 c1 3d 8d 45 d7 3d
       0.11106766 0.08156573 0.09445716 0.10511313
000050 b2 1b 9b 3b 37 7e da bd 63 f9 d6 bd 27 97 98 3b
       0.004733526 -0.10668605 -0.104967855 0.0046566906
000060 6c 54 81 3b da a9 ae bb 10 b4 b3 3d 42 7e e2 3d
       0.0039468314 -0.0053303065 0.087745786 0.11059238
000070 c6 af 79 bb f4 b7 b5 bd 32 3b 89 3d 3b 1f 90 bb
       -0.0038099154 -0.08872977 0.06700744 -0.004398254
000080 b0 e8 e2 bd d7 6f 85 3b c8 7b e7 bd 74 a8 b7 ba
       -0.11079538 0.0040721702 -0.11302906 -0.0014011995
000090 46 06 f5 bd 52 94 60 3b 4c 3e b9 3d ef 7b 88 bb
       -0.11964087 0.0034268093 0.09045085 -0.0041651647
0000a0 e3 46 96 3d d4 5b f6 3b 6e ca d5 bd b7 62 9f bd
       0.07337739 0.007518271 -0.10439001 -0.077825
0000b0 e1 43 bd bd 40 35 71 bb 00 28 90 3b 40 5b 61 bb
       -0.092414625 -0.003680542 0.0043992996 -0.0034386665
0000c0 b7 44 a7 bb 32 8a c7 3d 1d 60 d0 3d cd 8f 9d bd
       -0.005104627 0.097431555 0.10174582 -0.076934434
0000d0 10 5b 89 bd c6 54 8d 3b c5 33 74 3b 5b 31 ac bb
       -0.06706822 0.0043130843 0.0037262302 -0.005254907
0000e0 de c7 de bd 73 34 82 3d a9 94 af 3d 9c fa ce bd
       -0.108779654 0.0635766 0.085732765 -0.10106394
0000f0 c0 69 55 3b 92 7a ea bd 85 b0 02 3d df 3f 0a be
       0.0032564253 -0.1144916 0.031906623 -0.13500927

conv2.att_src f4 [1, 2, 16]
000000 68 fc c5 3e 3c 3a b9 3e 29 b9 1f be 47 b1 10 bf
       0.38669133 0.36177242 -0.15597977 -0.56520504
000010 da f0 b1 be 13 e8 f5 3c f0 75 76 3e ca 95 9a be
       -0.34754068 0.030017888 0.24068427 -0.30192405
000020 f5 5d 2b 3e f3 34 b2 be 69 52 ba 3c 5a 7c 36 3f
       0.1673506 -0.34806022 0.022744374 0.71283495
000030 e5 29 07 3d 5c fd 2a 3f 68 39 eb bd 56 60 0d bf
       0.032998938 0.66792846 -0.11485559 -0.5522512
000040 35 c5 a2 3d 25 25 bf 3d f1 73 bc be b6 ec d9 3e
       0.079477705 0.09333257 -0.36807206 0.4256341
000050 ce 00 c5 3e fc 2e 8f 3e 52 df b1 be 14 53 08 3f
       0.38477176 0.27965534 -0.34740692 0.5325177
000060 3f 5a 16 bf 29 3d 84 3e 31 e2 9f 3d 02 54 90 3c
       -0.58731455 0.25827911 0.078068145 0.017618183
000070 b9 4c 7d 3e c2 3b cb be d4 aa aa 3e fd 6c 55 be
       0.24736299 -0.3969403 0.33333457 -0.20842357

conv2.att_dst f4 [1, 2, 16]
000000 20 b6 fd bd f6 83 c1 bd a6 c7 65 be 9e f8 6c 3e
       -0.12388253 -0.09448998 -0.22439441 0.23141715
000010 0d 4f 42 3d 0d 2f c3 bc c5 bc c6 bd e6 fc 5a be
       0.04743867 -0.023826146 -0.09703974 -0.21385536
000020 80 36 5e 3d 46 ae 4d be 5b f7 ab bd 93 2b ec 3c
       0.054251194 -0.20086011 -0.08396789 0.028829372
000030 9c e7 1b bd 75 11 e7 3d 86 30 8c 3c 3c 92 3e 3e
       -0.038062677 0.112826265 0.017112982 0.18610471
000040 b1 38 bf bd a1 00 87 3c 7e af 46 be 53 a7 54 3d
       -0.09336985 0.016479792 -0.19402882 0.051917385
000050 45 15 c0 bd d6 ce 0a b9 bf e9 00 be c8 2d e3 bd
       -0.09379057 -0.00013237758 -0.12589167 -0.110927165
000060 ef e0 1d bd 6a 49 44 be d0 af 8d 3d bb 2e ba bd
       -0.03854459 -0.1916863 0.06918299 -0.090909444
000070 4b 25 51 bd 20 dd 0f 3e d2 9d 04 3b fd b9 1d 3e
       -0.051060956 0.14049196 0.002023567 0.1540298

conv2.bias f4 [32]
000000 0a 36 ce b6 9c 41 1b b7 cd 11 03 37 b0 24 85 b5
       -6.1455694e-06 -9.253996e-06 7.812353e-06 -9.91995e-07
000010 a0 5b b7 35 9c e0 67 37 48 ec 4b b7 94 6c fe 36
       1.3661229e-06 1.3820969e-05 -1.2154756e-05 7.58243e-06
000020 1e 63 3b 35 d0 67 c5 b5 1e af f8 b6 64 94 72 35
       6.9807163e-07 -1.4707857e-06 -7.4113623e-06 9.036796e-07
000030 7c da 16 36 73 50 6f b6 6f 86 6f b7 f8 b5 0c 35
       2.2478916e-06 -3.5660603e-06 -1.427681e-05 5.2418864e-07
000040 3f db f3 b6 1b e5 12 b6 39 5f 94 b7 b9 4b 18 b8
       -7.267488e-06 -2.1889052e-06 -1.7687316e-05 -3.6310146e-05
000050 4c 95 90 b7 6e bb 47 36 f4 03 50 36 40 76 86 34
       -1.723566e-05 2.976241e-06 3.0996716e-06 2.5045483e-07
000060 3f 6f 7b b6 fa 8a 3f 37 6b 61 3e b7 4f b6 b7 36
       -3.7466668e-06 1.1416845e-05 -1.1347564e-05 5.4750485e-06
000070 0e d1 f1 b6 ca f4 04 b7 b2 21 31 37 8d 41 21 37
       -7.206697e-06 -7.9248075e-06 1.0557867e-05 9.61161e-06

conv2.lin.weight f4 [32, 64]
000000 db bc 29 bd 4c 5d 51 3c 83 dc a1 3d 56 e5 8f 3b
       -0.041439872 0.012778591 0.079033874 0.0043913526
000010 85 ed 29 3e 1d 36 88 3d 93 93 f8 bc 38 06 b5 3d
       0.16594513 0.06650946 -0.030343806 0.08839077
000020 51 04 a9 3d 33 be 99 3d 70 6c 8e bc b6 38 12 3d
       0.082527764 0.07506981 -0.017385691 0.035698615
000030 62 aa 12 bd 3d 95 1e 3e da 2e fa 39 40 5a 09 3e
       -0.03580702 0.15486617 0.00047718623 0.13413334
000040 35 5d 04 3e 50 2f 38 3d db 75 c8 3d 68 97 0d 3e
       0.1292618 0.044966996 0.09788104 0.13827288
000050 fc 22 3c bd 1e 61 2a bd 2a a6 1e 3d 82 d4 34 bd
       -0.0459318 -0.041596524 0.038732685 -0.044147976
000060 34 91 49 3c 2e 56 7c 3d e8 c2 47 3d 13 db ef 3d
       0.0123026855 0.061605625 0.04876986 0.11711707
000070 e9 59 3b 3d 13 66 84 bb 8e ba a7 3c 1b ea 9d 3d
       0.045740042 -0.0040404885 0.020474698 0.07710668
000080 a4 0e 3b bd a8 55 42 bc 61 0d a7 bd eb 6a 9f bd
       -0.04566826 -0.011861242 -0.08156849 -0.07784065
000090 3e d7 8f bb 3b f9 de bd 65 d9 4e 3d 4f d7 a7 3b
       -0.0043896725 -0.10887381 0.050500292 0.0051221023
0000a0 64 0e 7f 3d 2b 8e 58 3c e3 8f 10 be c0 60 e4 3b
       0.062269583 0.013217489 -0.14117388 0.0069695413
0000b0 dd 85 51 bd 3f 9a 1a 3d f6 9b 2f be 2a b5 9c 3c
       -0.051153053 0.037744757 -0.17149338 0.019129355
0000c0 1e 5d 3a 3d e7 1a 0c bd cf 0c f5 bd 6b 17 38 bb
       0.04549896 -0.034205344 -0.11965334 -0.002809013
0000d0 69 d6 a1 bd af 94 00 be fe 7a 26 bd 49 62 ce bc
       -0.079022236 -0.12556718 -0.04064464 -0.02519335
0000e0 03 41 30 3b 5b 2b 93 bc 3b 01 b8 bd a6 a1 52 bc
       0.0026894219 -0.01796501 -0.0898461 -0.012855923
0000f0 96 1f e7 bd 03 a1 f3 bd 85 8a 28 be b9 d7 71 bd
       -0.112853214 -0.11895945 -0.16459091 -0.05904362
000100 c8 78 64 3d 1f a5 30 be f8 65 c8 bd 40 cd 43 3e
       0.05577925 -0.17250489 -0.09785074 0.19121265
000110 69 d0 23 be 09 40 56 bd 41 3b 98 bd 7b ff a9 bd
       -0.15997471 -0.052307162 -0.07433177 -0.08300682
000120 07 ca 0a be 97 89 f5 bd d7 d9 57 be 11 a2 56 3e
       -0.1355363 -0.11989134 -0.21079193 0.20960261
000130 25 3c 38 be 26 05 e9 bd a8 5e 89 bd c8 24 a2 bd
       -0.17991693 -0.11377935 -0.06707507 -0.07917172
000140 ed 42 32 be 70 f3 82 bd bf 59 71 bd 61 59 d0 bd
       -0.17408343 -0.06394088 -0.05892348 -0.10173298
000150 3f 7a b3 bc 29 c2 ce bc b8 1a a8 3b 9f db 30 3d
       -0.021908877 -0.025239067 0.0051301382 0.043178197
000160 6d af 26 3e 45 09 92 bc 01 3d a9 3a 3f 2d 82 bd
       0.16277857 -0.017826686 0.0012911857 -0.06356286
000170 9d 3f 3e be 19 e6 37 be ba 75 7b b9 05 18 0c be
       -0.18578954 -0.17958869 -0.00023981082 -0.13681038
000180 b7 1d ed bc 3a b5 0b 3e e9 17 1b 3e 07 f8 f9 3d
       -0.028944833 0.13643351 0.1514584 0.122055106
000190 9e e7 d2 3d f8 2b a2 3d e9 a4 84 bd 3b 3a c3 3d
       0.10298084 0.079185426 -0.064767666 0.09532591
0001a0 87 94 57 bd 4d 60 a3 3d 22 ea d4 3d 7f 79 bb 3c
       -0.05263188 0.07977352 0.1039622 0.022885082
0001b0 75 ad 13 3e a4 d4 ee 3d c4 7d 02 3e 63 f9 f8 3d
       0.14421637 0.11661652 0.12743288 0.12156942
0001c0 5d 38 16 3e 29 6f 3a 3c 58 be a8 bd 9e 7b ef 3c
       0.14669938 0.011379042 -0.0823943 0.02923375
0001d0 aa 29 af 3d 51 2e 8a 3e 35 c2 fc 3d 8d eb 06 3e
       0.08552869 0.26988462 0.123417296 0.13175793
0001e0 f2 88 d6 3d f1 f8 52 bc 56 00 07 3d d9 85 e7 3b
       0.10475339 -0.012876735 0.032959305 0.0070655164
0001f0 fe 54 12 3e 28 ce 80 3d b5 04 a3 bd 05 ce 6f 3d
       0.14290234 0.06289321 -0.07959882 0.058546085
000200 63 35 6f bd 66 1f 69 3b 58 ae b1 3d f0 74 4c 3d
       -0.058400523 0.0035571693 0.086758316 0.049916208
000210 b3 f2 b5 bc 01 6a eb 3c 75 ba 88 bd 91 77 4b 3d
       -0.022210455 0.02873707 -0.06676189 0.049674574
000220 71 28 b2 bc ed a0 f8 bc 38 f1 5d 3d dc 18 c1 3d
       -0.0217478 -0.030350173 0.054185122 0.0942857
000230 04 12 c1 bd 6f a8 1a 3e d5 e4 ce 3d eb 1f d1 3d
       -0.09427264 0.15103315 0.1010224 0.10211166
000240 77 13 a4 3c fe af 43 bc 0e 57 ef 3c 91 29 39 3b
       0.020028813 -0.011943815 0.029216316 0.0028253535
000250 f1 e4 4e 3c fa dc 8b bd 9a f0 37 be 36 17 64 bc
       0.012627826 -0.06829257 -0.17962876 -0.01392155
000260 14 9d 2c 3e ba 9a 49 3b 9c f4 1d 3d 60 b9 f3 3d
       0.16856796 0.003076239 0.038563356 0.11900592
000270 5d 45 9b 3d e4 a2 e0 bd 1f f7 03 3d f6 4c 54 3e
       0.07581589 -0.10968569 0.032218095 0.20732483
000280 f0 67 00 bc e2 7b 3b 3d 46 f6 18 be 87 16 41 bd
       -0.007837281 0.04577244 -0.14937696 -0.047140624
000290 10 86 b6 bc 6e 83 13 be 49 e3 9f bd e2 15 23 3e
       -0.022280723 -0.14405605 -0.07807023 0.15926316
0002a0 a0 ee fc bd 5b 15 e9 3d 5f 3a bc bd 53 a9 08 be
       -0.123502016 0.11381026 -0.09190821 -0.13345842
0002b0 ab 9f c4 bd e2 4e 13 3e 2d 27 b4 3c e4 a8 d0 3d
       -0.09600767 0.1438556 0.021991337 0.10188463
0002c0 eb 71 09 3e 4a 79 2e 3d c4 71 cb bc f9 02 16 bd
       0.13422363 0.04259614 -0.024834521 -0.03662393
0002d0 83 e7 22 be 9c 2b 27 3b 6d 5a da bb 3d 98 a7 3d
       -0.15908627 0.002550817 -0.0066636116 0.08183334
0002e0 40 0d c2 bd 4c d7 b3 bd a7 c4 51 3d d5 8d ab bc
       -0.094751835 -0.08781299 0.051212933 -0.020941654
0002f0 15 12 0b 3d cf 34 98 bd b0 49 90 3c ba a9 2f bd
       0.03395279 -0.074319474 0.017613262 -0.042886473
000300 65 44 5f bd 56 49 a0 bd 72 9a fb bc dc 0f 3e bc
       -0.054508585 -0.07826488 -0.030713294 -0.011600461
000310 27 fb 60 3d 3c d7 80 3a 38 73 8b 3d 04 61 2e 3d
       0.054927018 0.000982977 0.068090856 0.04257299
000320 29 61 a3 3d a5 1c 27 3a a6 8e eb 3c 9a 61 2d bd
       0.07977516 0.0006374813 0.028754544 -0.04232941
000330 93 1c c9 3d 53 3e 84 3d 97 8f 45 bd ec a8 8f 3d
       0.09819903 0.064572 -0.04823264 0.07014641
000340 6c 1b 0b bd f4 02 22 bd e9 ea 2d bc 8e 9c 80 3d
       -0.0339617 -0.039553598 -0.010615089 0.062798604
000350 91 da c7 bd 3c 8a 00 be 0a 76 1f bd b6 c4 2c be
       -0.09758485 -0.12552732 -0.03893093 -0.16871914
000360 ad 3e 68 bd 4b 6f 7f 3d 70 65 8f 3d d9 ee 42 bb
       -0.056700397 0.062361997 0.070017695 -0.0029744415
000370 29 2a 21 3e 41 f5 a7 3d 7b d4 1a bb 6e a2 cb 3d
       0.15738739 0.08201075 -0.0023625183 0.099430904
000380 5d a0 12 be 26 72 64 be f4 aa ce bd 07 59 83 bd
       -0.14318986 -0.22309169 -0.100912005 -0.06413465
000390 4b 30 3f be b3 d5 f8 bd e3 3b c1 bd 69 39 54 3b
       -0.18670766 -0.12150135 -0.094352506 0.0032382852
0003a0 b7 a5 6a bd 98 65 d1 bd db f4 84 be 82 90 4e be
       -0.057286944 -0.102244556 -0.2596806 -0.20172313
0003b0 cb 16 31 be 5b b0 e8 bd a2 e7 d4 bd 73 93 b6 bd
       -0.17293851 -0.11361762 -0.10395743 -0.089148425
0003c0 48 9c 42 3d fb 46 d3 bd f8 ab 06 be c4 c5 57 bd
       0.047512323 -0.10316273 -0.13151538 -0.05267884
0003d0 55 1c c7 bd 12 61 9a bd de 7b 12 be 5c 95 ca bc
       -0.09722201 -0.07538046 -0.14305064 -0.024729423
0003e0 4e 91 44 be b0 95 b3 bd bb 0c ba bd 92 0c 25 be
       -0.19196054 -0.08768785 -0.090844594 -0.16118076
0003f0 7c e5 66 be c1 c1 3c be 14 e1 df 3c 5a a4 05 be
       -0.22548479 -0.18433286 0.027329005 -0.13050976

conv3.lin.weight f4 [1, 32]
000000 a6 e8 0f 3d 01 63 7c bd 91 cf 3f 3d 66 8d b7 bc
       0.03513398 -0.061617855 0.04682881 -0.022406291
000010 81 53 29 3d 47 3e 10 bd d0 d2 38 3d 3c 37 56 3d
       0.0413394 -0.035215642 0.04512292 0.05229877
000020 c1 17 61 bd 6a 7c 12 3d ec da 03 bd 2c 3a 2b bd
       -0.054954294 0.03576318 -0.032191202 -0.041803524
000030 95 24 0c bd 80 1f 2c bd f9 7a 8c bd f0 00 de bc
       -0.034214575 -0.04202223 -0.06859393 -0.027100056
000040 f1 9c 19 3d 17 59 21 3d 0e f0 4f bd fd 25 4f 3d
       0.037503187 0.039391603 -0.050766043 0.050573338
000050 d0 08 1d 3d b4 0d 29 3d 25 87 30 bd 36 73 f4 3c
       0.038338482 0.041272834 -0.043097634 0.029840093
000060 26 d7 f5 bc 04 4d 35 bd b9 2d 12 3d b9 66 0e 3d
       -0.030009817 -0.0442629 0.035688136 0.034765933
000070 06 e8 0d 3d b4 b4 56 3d ac f5 41 bd dc a7 4e bc
       0.034645103 0.052418426 -0.04735343 -0.012613263

bn1.weight f4 [64]
000000 e3 45 0b 3f 31 3b 53 3f ff 5e ec 3e b7 0d 45 3f
       0.54403514 0.82512194 0.46166226 0.7697405
000010 36 2d 3d 3f f2 9f 43 3f e5 5b 66 3f a7 7d 28 3f
       0.7389711 0.7641593 0.8998397 0.6581673
000020 33 d4 25 3f 79 71 4b 3f 22 8b 06 3f d0 84 3c 3f
       0.64776915 0.7947002 0.5255605 0.73640156
000030 eb 5e c3 3e 88 95 70 3f a5 ba f0 3e 67 1e 4f 3f
       0.38158354 0.93978167 0.47017398 0.80905765
000040 a0 ee 31 3f df 45 4f 3f 7b 8c 43 3f 40 53 28 3f
       0.6950474 0.8096599 0.7638623 0.6575203
000050 2a 49 f5 3e 33 0f 46 3f b5 b1 3d 3f 55 3f 23 3f
       0.47907382 0.7736694 0.74099284 0.6376851
000060 e7 6c 3e 3f 60 ad 0c 3f 86 82 15 3f 87 29 48 3f
       0.7438492 0.5495205 0.5840229 0.78188366
000070 9d e4 48 3f 7d 4f 32 3f 27 09 0c 3f b1 8f 60 3f
       0.78473836 0.6965254 0.54701465 0.87719256
000080 02 75 31 3f c2 da 68 3f 8b 72 18 3f ab 4b d6 3e
       0.69319165 0.909588 0.5954978 0.41854605
000090 c8 a3 79 3f fc 54 37 3f 80 c6 0c 3f b5 43 5a 3f
       0.97515535 0.7161405 0.54990387 0.8525956
0000a0 04 c8 3a 3f 9e d4 27 3f 0b 71 42 3f 49 12 20 3f
       0.7296145 0.65558803 0.7595374 0.625279
0000b0 25 8c 52 3f 8b d1 56 3f 69 a6 4f 3f 24 dc 36 3f
       0.82245094 0.8391349 0.81113297 0.7142966
0000c0 c9 ac 26 3f 13 c4 58 3f 1c ba 41 3f d0 20 08 3f
       0.651074 0.84674186 0.75674605 0.5317507
0000d0 69 6e 16 3f 29 52 59 3f d0 62 2a 3f f4 cb 11 3f
       0.5876222 0.8489099 0.66557026 0.5695183
0000e0 b2 bb 32 3f 5c 9e 39 3f 52 e7 5c 3f d4 ca 1c 3f
       0.6981765 0.7250726 0.86290467 0.6124699
0000f0 61 99 25 3f 48 ca 39 3f 0e 31 0b 3f a5 83 68 3f
       0.6468716 0.7257428 0.54371727 0.90825874

bn1.bias f4 [64]
000000 c6 a0 2a bd 4f 23 19 be b1 0f 5f 3d d2 2c b5 be
       -0.04165723 -0.14954875 0.054458324 -0.35385758
000010 76 a1 bb be e2 4c b9 be ef 2e 22 be 0e d2 62 be
       -0.36646622 -0.3619147 -0.15838216 -0.22150442
000020 ab 68 d4 be 51 44 fc bd d5 33 21 3e d8 68 e0 be
       -0.41486105 -0.12317718 0.15742429 -0.4382999
000030 40 ae 08 3e 5f 80 fb be 69 7e f3 3d 66 d4 fe be
       0.13347721 -0.49121377 0.11889345 -0.49771422
000040 25 15 fd bd eb 71 ff bd 82 ae b4 be 57 3e 33 bd
       -0.123575486 -0.124729 -0.3528939 -0.043760624
000050 60 2d 1e 3e 63 3f a7 be 0a 8c 49 be 42 ed 7d 3e
       0.15446997 -0.32665548 -0.19682327 0.24797538
000060 5e 4d ee be 7d 97 eb bd 63 90 25 be dc f5 a2 be
       -0.465434 -0.115035035 -0.1616836 -0.318282
000070 18 3b aa be e1 28 66 be 41 2f e2 bd eb 84 01 bf
       -0.3324821 -0.22476532 -0.11044169 -0.5059344
000080 62 48 90 3d 07 ba 0a bf e6 bd 15 bd 42 5a 08 bd
       0.07045056 -0.54190105 -0.036558054 -0.0332892
000090 40 c7 aa be 80 23 00 be 05 3f 40 3c 45 00 d0 be
       -0.3335514 -0.12513542 0.011733775 -0.40625206
0000a0 a7 c2 a1 be 97 bc f5 be f2 78 1d be 52 4f 1b be
       -0.3159382 -0.47995445 -0.15378168 -0.15166977
0000b0 47 de ae be 31 1f fe be c0 3e 6d bd 37 0d c8 be
       -0.3415396 -0.49633172 -0.05792117 -0.39072582
0000c0 16 35 a2 be ed 17 ce be e8 7d 0c be 11 61 a2 bd
       -0.31681126 -0.4025263 -0.13719904 -0.0792867
0000d0 26 02 5e be ad 31 11 bf c0 ff 21 be 58 ae b6 be
       -0.21680507 -0.56716424 -0.15820217 -0.3567989
0000e0 e7 91 82 be b0 1c b4 bc 31 8e c1 be b2 96 ec 38
       -0.2550194 -0.021986336 -0.37803796 0.00011281426
0000f0 36 4e 29 be a6 6b 3f be 34 33 06 3d d3 ff 2c be
       -0.16533741 -0.18693408 0.032763675 -0.16894464

bn1.running_mean f4 [64]
000000 27 9b b6 b7 00 70 b3 39 78 20 a8 39 7c 1d 17 b6
       -2.176834e-05 0.00034224987 0.00032067648 -2.2517916e-06
000010 de 10 ae 39 56 ac aa 39 ac 12 af b9 19 bc 58 38
       0.00033200433 0.00032553327 -0.00033392513 5.1673593e-05
000020 9c a5 2b 39 9e 30 b3 39 fd e1 33 b8 5a ab 82 38
       0.00016369525 0.00034177763 -4.2887394e-05 6.2308e-05
000030 e9 2b 03 b9 85 50 a0 b9 10 7d 87 39 a9 27 a2 b8
       -0.00012509491 -0.0003057757 0.00025842385 -7.732149e-05
000040 d2 c8 bc 39 0c 9e 86 39 7c a3 99 39 fa 35 af 39
       0.00036007777 0.00025676226 0.0002930424 0.00033418817
000050 3a 53 42 b7 a3 be b5 b9 50 3d b4 b9 e0 97 17 b6
       -1.1582679e-05 -0.00034665046 -0.00034377957 -2.2589156e-06
000060 8c 67 00 37 e2 8c 80 b8 55 95 8d 39 da 6c b9 39
       7.653503e-06 -6.129757e-05 0.00027004877 0.0003536705
000070 a4 99 73 b7 e0 25 96 b9 0c b2 5b 39 0c b0 f2 38
       -1.4519701e-05 -0.0002863845 0.00020951795 0.000115722505
000080 bc 2c 19 ba 33 72 89 38 0a 40 19 ba e6 e1 0d b8
       -0.0005843153 6.55394e-05 -0.00058460294 -3.3827404e-05
000090 e0 c8 22 ba 5c be eb b7 78 b3 fc 39 ad 54 8f b8
       -0.0006209742 -2.8102826e-05 0.000481989 -6.8345435e-05
0000a0 5d f1 d1 39 1b 95 45 b7 ae 0f 0c ba 34 67 d5 b9
       0.00040043416 -1.1776831e-05 -0.00053429126 -0.00040703418
0000b0 64 ad fa b9 c4 aa d8 b7 d7 5d f1 38 62 1d 07 b8
       -0.00047812902 -2.5828725e-05 0.000115092545 -3.2213873e-05
0000c0 15 62 c6 b8 46 70 02 3a cd 48 0c 3a b5 3c d1 b9
       -9.459645e-05 0.00049758365 0.00053514243 -0.00039908817
0000d0 fa 03 b6 b9 56 13 8b 38 18 25 3f b8 f2 59 8b b8
       -0.00034716708 6.631638e-05 -4.5572495e-05 -6.64479e-05
0000e0 5a fa 12 ba 4e c1 ab 39 f3 87 ed 39 89 b4 07 ba
       -0.00056067633 0.00032759685 0.00045305453 -0.0005176743
0000f0 47 b8 4f b8 ab e6 1d ba bc 0a 32 39 46 58 39 ba
       -4.9524268e-05 -0.0006023447 0.00016979402 -0.00070703437

bn1.running_var f4 [64]
000000 95 06 61 36 5d b9 62 3b 41 3f 38 3b 0c c2 8d 36
       3.3531444e-06 0.0034595348 0.0028113874 4.2247175e-06
000010 92 fa 4e 3b 80 8b 4d 3b e9 22 4b 3b d6 98 4a 36
       0.0031582457 0.0031363666 0.003099615 3.0189308e-06
000020 6b 29 41 3a e3 71 58 3b 64 97 8b 36 4d a9 83 36
       0.00073685375 0.0033026866 4.160147e-06 3.9238134e-06
000030 20 c2 ac 36 67 31 4c 36 1c a7 ec 3a 66 f1 ea 36
       5.1485986e-06 3.0427125e-06 0.0018055174 7.001846e-06
000040 58 a3 69 3b 7a 4a f9 3a a6 4a 2b 3b 91 71 4f 3b
       0.003565034 0.0019019388 0.0026137023 0.0031653384
000050 09 a7 87 36 3a fc 57 3b 88 6a 51 3b 84 25 92 36
       4.042759e-06 0.0032956735 0.0031954367 4.3555065e-06
000060 cc 79 7f 36 42 95 cf 36 f6 da 10 3b 10 b5 65 3b
       3.8068856e-06 6.1864566e-06 0.0022103167 0.0035050549
000070 99 47 84 36 2f 98 16 3b d1 95 a8 3a c3 91 aa 36
       3.9422416e-06 0.0022978892 0.0012862032 5.0833637e-06
000080 e3 ff 67 3b 33 ab b8 36 54 de 6e 3b de 00 33 35
       0.0035400323 5.5035575e-06 0.0036448436 6.668396e-07
000090 4d f3 85 3b 62 8e 5c 36 0b 4a 1a 3b 27 f2 76 36
       0.0040878416 3.2865432e-06 0.0023542668 3.6797808e-06
0000a0 fc 21 cb 3a aa 05 79 37 6b e1 4b 3b 2b 87 e1 3a
       0.0015497799 1.4842875e-05 0.0031109701 0.0017206421
0000b0 ba ea 1e 3b 18 51 23 36 35 07 9e 36 b2 c0 1c 36
       0.0024248795 2.4336096e-06 4.709606e-06 2.3357975e-06
0000c0 28 7d ce 36 d1 4d 32 3b ca cd 43 3b 9c 11 dc 3a
       6.1538485e-06 0.0027207027 0.0029877299 0.0016789916
0000d0 3f 45 a7 3a 5a bb be 36 6c 7b 85 36 6f e5 e7 36
       0.0012761726 5.684252e-06 3.978077e-06 6.911046e-06
0000e0 fb f0 5e 3b 44 43 96 3a 83 0c 0b 3b 67 93 3d 3b
       0.0034018147 0.0011464139 0.0021217174 0.002892697
0000f0 71 de 46 36 41 26 77 3b d1 eb 97 39 13 78 ab 3b
       2.9633777e-06 0.003771201 0.0002897666 0.00523282

bn2.weight f4 [32]
000000 ca 7d 41 3f c4 09 4f 3f 38 c3 43 3f fb 5c 3c 3f
       0.75582564 0.80874276 0.76469755 0.73579377
000010 07 7f 42 3f 8a 1e 3e 3f ac 58 2f 3f b2 47 27 3f
       0.7597508 0.7426535 0.6849468 0.65343773
000020 98 e1 46 3f 8f 5f 48 3f aa 77 3d 3f f7 76 58 3f
       0.7768798 0.7827081 0.7401072 0.84556526
000030 80 49 3c 3f d2 1e 4f 3f 01 f8 34 3f 1b 91 4b 3f
       0.7354965 0.80906403 0.70690924 0.7951829
000040 42 4b 3f 3f 72 96 42 3f 29 67 35 3f 3c 43 4c 3f
       0.7472421 0.7601081 0.70860535 0.7979009
000050 23 2c 46 3f 56 79 0f 3f 74 7b 3c 3f 0e c9 42 3f
       0.774111 0.5604452 0.73625875 0.76088035
000060 d3 42 3e 3f 0e 96 36 3f a4 51 3d 3f cb 47 2f 3f
       0.74320716 0.71322715 0.739527 0.6846892
000070 a1 db 42 3f bf 54 54 3f a3 18 3b 3f 34 3b 2f 3f
       0.7611638 0.8294181 0.7308447 0.6844971

bn2.bias f4 [32]
000000 34 d2 a2 bd 6d 9f 22 be 7b c6 b5 bd 6a 22 d1 bd
       -0.07950249 -0.15881129 -0.08875748 -0.10211642
000010 ee 1f b8 bd ea dd eb bd 1f 66 a9 bd 75 ec f2 bd
       -0.08990465 -0.11516936 -0.08271431 -0.11861507
000020 49 ac bc bd b8 ef c3 bd df f7 c6 bd c3 5c 05 be
       -0.09212548 -0.09567207 -0.097152464 -0.13023667
000030 c3 bf e7 bd c9 09 dd bd e9 e2 0f be 09 f1 ee bd
       -0.113158725 -0.10792882 -0.14051403 -0.116670676
000040 c7 8f 77 bd f1 d3 8a bd fb 6e 10 be a4 0a 41 bd
       -0.06043985 -0.06778706 -0.14104836 -0.04712929
000050 f8 c2 cd bd e5 f9 6d bd 90 dd 04 be c7 bc 5f bd
       -0.10046953 -0.058099646 -0.12975144 -0.05462339
000060 99 ad e3 bd 61 c3 20 be 6f 83 b9 bd 84 a3 5f bd
       -0.111170955 -0.15699531 -0.09058272 -0.0545993
000070 af 7d 76 bd 6e 33 c6 bd ae c0 b1 bd 62 b7 9d bd
       -0.060178455 -0.09677778 -0.08679329 -0.07700993

bn2.running_mean f4 [32]
000000 64 c5 71 be 7f d6 b5 be 40 c7 f4 be ca 6e ad 3d
       -0.23610455 -0.3551521 -0.47808266 0.08468397
000010 72 98 95 3d aa 82 c5 be 23 b9 c7 be e3 dd 12 bf
       0.07304467 -0.3857625 -0.39008436 -0.5736982
000020 ca 5c ad 3c 5e c0 ec be ba 73 af be fe 3f 67 bd
       0.02116241 -0.46240515 -0.3426798 -0.056457512
000030 e2 31 f6 be 54 89 f4 bd ae 5a c0 be 4c 85 9d 3d
       -0.48084933 -0.11940256 -0.37569183 0.0769144
000040 1d 10 98 be 1d 92 99 be 24 7e 17 bf 7a 54 ba 3d
       -0.29699793 -0.29994288 -0.5917685 0.09098144
000050 bc 6a 00 bf b1 5d 30 be b1 fd ff be 5d c8 cb be
       -0.50162864 -0.1722324 -0.4999824 -0.39801303
000060 1d ec e2 be fa 6e ee be a4 d1 cd be cb 3c 81 be
       -0.44320765 -0.46569043 -0.40199006 -0.25241694
000070 e7 29 96 be 9c c9 85 3d 74 f5 c5 3c ab 6f 63 3e
       -0.29328844 0.065325946 0.024164893 0.22210567

bn2.running_var f4 [32]
000000 77 7d 74 3e 22 03 00 3f 05 26 ed 3e e2 47 05 3f
       0.23875986 0.5000478 0.4631807 0.5206281
000010 5a ac 49 3e 90 eb 42 3e 8a 7b b4 3e 8b 33 ba 3e
       0.19694653 0.19035172 0.35250503 0.3636745
000020 39 67 5a 3e 2b 36 34 3e e3 d1 f5 3d 3f 36 93 3f
       0.21328439 0.17598788 0.12002923 1.150093
000030 f7 c4 1c 3e 5d 1c 13 40 ca 0b dc 3e 54 3c eb 3e
       0.15309511 2.2986062 0.42977744 0.45944464
000040 67 c5 b8 3e fa 49 a2 3e 23 34 f4 3e 42 fb 6f 3e
       0.36088106 0.31697065 0.47696027 0.23435691
000050 b0 ce 55 3e 55 31 08 3f 03 67 91 3e f0 1e d8 3f
       0.20879626 0.53200275 0.28398904 1.6884441
000060 15 da 16 40 82 ae be 3e 74 51 a1 3e c8 83 d4 3e
       2.3570607 0.37242514 0.31507456 0.4150679
000070 43 06 d2 3e b6 f3 b4 3e 38 4e 67 3e 91 15 12 3e
       0.41020402 0.35342187 0.22588432 0.1426604
